data/Models/e3nn_2cv.pt (torch, 345830 bytes, 8 tensors)

gate.mul.output_mask f4 [96]
1.0 1.0 1.0 1.0 1.0 1.0 1.0 1.0
1.0 1.0 1.0 1.0 1.0 1.0 1.0 1.0
1.0 1.0 1.0 1.0 1.0 1.0 1.0 1.0
1.0 1.0 1.0 1.0 1.0 1.0 1.0 1.0
1.0 1.0 1.0 1.0 1.0 1.0 1.0 1.0
1.0 1.0 1.0 1.0 1.0 1.0 1.0 1.0
1.0 1.0 1.0 1.0 1.0 1.0 1.0 1.0
1.0 1.0 1.0 1.0 1.0 1.0 1.0 1.0
1.0 1.0 1.0 1.0 1.0 1.0 1.0 1.0
1.0 1.0 1.0 1.0 1.0 1.0 1.0 1.0
1.0 1.0 1.0 1.0 1.0 1.0 1.0 1.0
1.0 1.0 1.0 1.0 1.0 1.0 1.0 1.0
00000000: 0000 803f 0000 803f 0000 803f 0000 803f
00000010: 0000 803f 0000 803f 0000 803f 0000 803f
00000020: 0000 803f 0000 803f 0000 803f 0000 803f
00000030: 0000 803f 0000 803f 0000 803f 0000 803f
00000040: 0000 803f 0000 803f 0000 803f 0000 803f
00000050: 0000 803f 0000 803f 0000 803f 0000 803f
00000060: 0000 803f 0000 803f 0000 803f 0000 803f
00000070: 0000 803f 0000 803f 0000 803f 0000 803f
00000080: 0000 803f 0000 803f 0000 803f 0000 803f
00000090: 0000 803f 0000 803f 0000 803f 0000 803f
000000a0: 0000 803f 0000 803f 0000 803f 0000 803f
000000b0: 0000 803f 0000 803f 0000 803f 0000 803f
000000c0: 0000 803f 0000 803f 0000 803f 0000 803f
000000d0: 0000 803f 0000 803f 0000 803f 0000 803f
000000e0: 0000 803f 0000 803f 0000 803f 0000 803f
000000f0: 0000 803f 0000 803f 0000 803f 0000 803f
00000100: 0000 803f 0000 803f 0000 803f 0000 803f
00000110: 0000 803f 0000 803f 0000 803f 0000 803f
00000120: 0000 803f 0000 803f 0000 803f 0000 803f
00000130: 0000 803f 0000 803f 0000 803f 0000 803f
00000140: 0000 803f 0000 803f 0000 803f 0000 803f
00000150: 0000 803f 0000 803f 0000 803f 0000 803f
00000160: 0000 803f 0000 803f 0000 803f 0000 803f
00000170: 0000 803f 0000 803f 0000 803f 0000 803f

gate2.mul.output_mask f4 [72]
1.0 1.0 1.0 1.0 1.0 1.0 1.0 1.0
1.0 1.0 1.0 1.0 1.0 1.0 1.0 1.0
1.0 1.0 1.0 1.0 1.0 1.0 1.0 1.0
1.0 1.0 1.0 1.0 1.0 1.0 1.0 1.0
1.0 1.0 1.0 1.0 1.0 1.0 1.0 1.0
1.0 1.0 1.0 1.0 1.0 1.0 1.0 1.0
1.0 1.0 1.0 1.0 1.0 1.0 1.0 1.0
1.0 1.0 1.0 1.0 1.0 1.0 1.0 1.0
1.0 1.0 1.0 1.0 1.0 1.0 1.0 1.0
00000000: 0000 803f 0000 803f 0000 803f 0000 803f
00000010: 0000 803f 0000 803f 0000 803f 0000 803f
00000020: 0000 803f 0000 803f 0000 803f 0000 803f
00000030: 0000 803f 0000 803f 0000 803f 0000 803f
00000040: 0000 803f 0000 803f 0000 803f 0000 803f
00000050: 0000 803f 0000 803f 0000 803f 0000 803f
00000060: 0000 803f 0000 803f 0000 803f 0000 803f
00000070: 0000 803f 0000 803f 0000 803f 0000 803f
00000080: 0000 803f 0000 803f 0000 803f 0000 803f
00000090: 0000 803f 0000 803f 0000 803f 0000 803f
000000a0: 0000 803f 0000 803f 0000 803f 0000 803f
000000b0: 0000 803f 0000 803f 0000 803f 0000 803f
000000c0: 0000 803f 0000 803f 0000 803f 0000 803f
000000d0: 0000 803f 0000 803f 0000 803f 0000 803f
000000e0: 0000 803f 0000 803f 0000 803f 0000 803f
000000f0: 0000 803f 0000 803f 0000 803f 0000 803f
00000100: 0000 803f 0000 803f 0000 803f 0000 803f
00000110: 0000 803f 0000 803f 0000 803f 0000 803f

gate3.mul.output_mask f4 [48]
1.0 1.0 1.0 1.0 1.0 1.0 1.0 1.0
1.0 1.0 1.0 1.0 1.0 1.0 1.0 1.0
1.0 1.0 1.0 1.0 1.0 1.0 1.0 1.0
1.0 1.0 1.0 1.0 1.0 1.0 1.0 1.0
1.0 1.0 1.0 1.0 1.0 1.0 1.0 1.0
1.0 1.0 1.0 1.0 1.0 1.0 1.0 1.0
00000000: 0000 803f 0000 803f 0000 803f 0000 803f
00000010: 0000 803f 0000 803f 0000 803f 0000 803f
00000020: 0000 803f 0000 803f 0000 803f 0000 803f
00000030: 0000 803f 0000 803f 0000 803f 0000 803f
00000040: 0000 803f 0000 803f 0000 803f 0000 803f
00000050: 0000 803f 0000 803f 0000 803f 0000 803f
00000060: 0000 803f 0000 803f 0000 803f 0000 803f
00000070: 0000 803f 0000 803f 0000 803f 0000 803f
00000080: 0000 803f 0000 803f 0000 803f 0000 803f
00000090: 0000 803f 0000 803f 0000 803f 0000 803f
000000a0: 0000 803f 0000 803f 0000 803f 0000 803f
000000b0: 0000 803f 0000 803f 0000 803f 0000 803f

conv.fc.layer0.weight f4 [3, 256]
-0.62112856 2.6104767 -0.5873805 -0.8900567 -0.945265 -0.8295785 -2.2245576 1.4552456
-1.4503511 -0.24958687 1.2494587 -0.12983379 -0.8332852 -0.1596339 0.65266895 0.50855196
0.3252939 0.23199038 0.33320704 -0.45581523 -0.09440251 0.22031204 0.6850631 -1.5565147
-0.3536096 -0.026979728 -0.14598262 -0.23114912 -0.7939603 0.47810778 0.15184519 0.61176074
-2.041038 -0.0023776647 1.6847523 -2.11842 1.1579903 1.6043271 1.1100931 -0.94157475
-1.0923007 -1.5484736 1.3803948 0.50438434 0.9630748 -0.100535475 0.80996627 -0.73033834
-0.9179765 -1.5917634 -1.5965897 1.1717435 -0.32060274 -0.6956759 0.34548274 0.096497856
-0.24599971 -1.4448493 -0.7755852 -0.082797565 -1.9790447 2.444708 0.055548433 0.17344558
-1.1427639 0.13366958 0.53384763 -0.6727977 -0.043588437 -0.9607472 0.0004498712 -0.61640596
2.4330456 1.0994877 0.8189122 1.2525636 -0.59865737 -0.1727253 -0.1869349 1.8836801
-0.21945974 -1.7590243 0.027257266 -0.41881195 0.07945029 1.2457118 -1.6995931 0.29213995
0.98988235 -2.419196 0.16923164 -0.7037197 0.8871767 2.830348 -0.021792917 -1.1643176
-0.30307284 -0.37029237 0.6599601 0.7910228 0.67992187 -0.5512635 -1.4868771 -0.026027828
-2.2644422 -1.3223895 -0.26537752 2.4323034 -2.5266476 1.8209217 -0.0035004835 1.1669842
0.8548258 -1.4199656 2.1720548 -1.497207 -0.47857022 -0.8704823 -1.41022 -0.8544892
0.36038142 -0.716228 0.9476144 0.6187603 0.3485072 -0.08519605 1.0346119 0.4468028
1.0811386 0.06389694 -0.8355275 -2.238986 0.19172001 -0.123751804 -0.3681409 -0.0415658
-0.20513675 0.26267707 -0.91114366 -1.6595795 -0.16480856 0.47932243 -0.6213324 3.0074155
0.39767808 -1.1700234 0.42127112 0.70604783 -0.88604033 -0.42466164 1.7955873 0.69804436
-0.17433566 -0.5053794 0.40606064 0.86069846 0.12478655 0.016170312 0.57579947 -1.8987228
0.5090219 1.3966881 -0.0135391345 0.96650416 0.13803336 -1.9040484 -0.8830119 -0.6225174
-0.31975234 0.54658824 -0.086449504 0.75798494 -1.1800027 -2.110272 -1.2423241 0.4388378
-0.27534935 -2.2983522 0.8272908 0.45650512 0.7667307 1.8056929 -2.566579 2.3700173
-2.0542593 -1.0496309 0.8887716 0.75942224 -1.4831485 0.3229807 0.38533312 -1.6459641
0.50871074 0.28772414 -0.3791012 1.3974854 1.5398023 0.23964643 0.8543265 -0.89775306
0.081693165 0.8111784 -0.19201185 -1.4375682 -0.3205803 1.4967006 0.08139729 -0.13894588
0.75761765 -1.4208424 -2.1299067 -0.27312395 -0.0002054289 -0.3696252 1.560165 1.1640309
0.96201795 0.4326992 1.3155661 1.4111683 -0.49495044 -1.4593906 -0.87636167 -0.43298373
-1.1199018 -0.057586297 1.4790822 -0.29025343 -1.1505383 -2.2343042 -1.1053734 -0.8476633
-0.5422542 -0.44981977 -0.06183423 -1.9865818 -1.373442 -2.6464515 1.2665558 -1.4163442
1.6066742 -0.028399227 0.46347353 1.6798046 -0.6076748 -0.725401 -1.0858473 0.82105637
1.5274497 -0.16037178 0.52154374 -0.7977403 0.33730865 -0.36600372 -1.1113527 1.6717067
00000000: 4802 1fbf 0d12 2740 925e 16bf c2da 63bf
00000010: e3fc 71bf 425f 54bf 275f 0ec0 7d45 ba3f
00000020: 1ba5 b9bf b393 7fbe 43ee 9f3f 26f3 04be
00000030: 2e52 55bf 1277 23be 5015 273f 7630 023f
00000040: ec8c a63e e38e 6d3e 1d9a aa3e 9d60 e9be
00000050: 1a56 c1bd 7b99 613e 4c60 2f3f e03b c7bf
00000060: 510c b5be 9704 ddbc 787c 15be 5bb2 6cbe
00000070: fb40 4bbf 8bca f43e 4e7d 1b3e 5a9c 1c3f
00000080: 5ea0 02c0 98d2 1bbb f7a5 d73f 3194 07c0
00000090: 0739 943f 975a cd3f 8817 8e3f 0b0b 71bf
000000a0: 82d0 8bbf 6234 c6bf c7b0 b03f 551f 013f
000000b0: 128c 763f 8be5 cdbd f359 4f3f 74f7 3abf
000000c0: 8200 6bbf e7be cbbf 0d5d ccbf b1fb 953f
000000d0: 0b26 a4be d117 32bf 1de3 b03e aba0 c53d
000000e0: 59e7 7bbe d2f0 b8bf c08c 46bf c591 a9bd
000000f0: 5651 fdbf 1976 1c40 c186 633d b89b 313e
00000100: 1646 92bf aee0 083e 3daa 083f 783c 2cbf
00000110: ca89 32bd 87f3 75bf b1dc eb39 c8cc 1dbf
00000120: 05b7 1b40 03bc 8c3f 3ba4 513f 0154 a03f
00000130: 9c41 19bf e7de 30be dd6b 3fbe 6e1c f13f
00000140: 0eba 60be b527 e1bf a14a df3c 856e d6be
00000150: d5b6 a23d 7c73 9f3f 448c d9bf 5e93 953e
00000160: ee68 7d3f 1bd4 1ac0 0f4b 2d3e f926 34bf
00000170: 031e 633f 6c24 3540 0f87 b2bc 5c08 95bf
00000180: 5d2c 9bbe f696 bdbe 25f3 283f 7880 4a3f
00000190: 5c0f 2e3f 9b1f 0dbf fd51 bebf 5038 d5bc
000001a0: 9fec 10c0 0f44 a9bf 90df 87be dcaa 1b40
000001b0: 98b4 21c0 f613 e93f 5e68 65bb bd5f 953f
000001c0: ddd5 5a3f 6fc1 b5bf f202 0b40 7ba4 bfbf
000001d0: 2807 f5be eed7 5ebf 1782 b4bf cebf 5abf
000001e0: ea83 b83e b85a 37bf db96 723f 1367 1e3f
000001f0: 896f b23e 447b aebd 2a6e 843f 56c3 e43e
00000200: c062 8a3f 66dc 823d 21e5 55bf 8c4b 0fc0
00000210: 4052 443e 9671 fdbd f77c bcbe e640 2abd
00000220: 5e0f 52be 9c7d 863e b640 69bf 1a6d d4bf
00000230: 93c3 28be c069 f53e a40f 1fbf 7f79 4040
00000240: 769c cb3e 54c3 95bf d9b0 d73e 8dbf 343f
00000250: 8ad3 62bf 406d d9be ced5 e53f 09b3 323f
00000260: 0c85 32be 8b60 01bf 2ee7 cf3e bc56 5c3f
00000270: 1790 ff3d 9a77 843c 9867 133f 5909 f3bf
00000280: 424f 023f adc6 b23f 3fd3 5dbc d16c 773f
00000290: 9e58 0d3e dcb7 f3bf 110d 62bf 4d5d 1fbf
000002a0: 94b6 a3be 35ed 0b3f 700c b1bd 4d0b 423f
000002b0: 540a 97bf b20e 07c0 7a04 9fbf 59af e03e
000002c0: 97fa 8cbe 3418 13c0 54c9 533f 0abb e93e
000002d0: 7748 443f f220 e73f d542 24c0 5dae 1740
000002e0: fc78 03c0 4e5a 86bf 8986 633f 7f69 423f
000002f0: cfd7 bdbf ba5d a53e 624a c53e f4ae d2bf
00000300: de3a 023f 9450 933e 8d19 c2be cde0 b23f
00000310: 3e18 c53f e065 753e 24b5 5a3f 25d3 65bf
00000320: bf4e a73d 63a9 4f3f c19e 44be 3c02 b8bf
00000330: 1a23 a4be e393 bf3f 9fb3 a63d d447 0ebe
00000340: 3bf3 413f 2ade b5bf 6450 08c0 e7d6 8bbe
00000350: 6768 57b9 843f bdbe 7db3 c73f f7fe 943f
00000360: cf46 763f c08a dd3e 7864 a83f 2aa1 b43f
00000370: 256a fdbe 50cd babf 3d59 60bf 0bb0 ddbe
00000380: f158 8fbf 9cdf 6bbd 9152 bd3f 199c 94be
00000390: d744 93bf d7fe 0ec0 e07c 8dbf 7600 59bf
000003a0: 2cd1 0abf c74e e6be e445 7dbd 5048 febf
000003b0: f3cc afbf 765f 29c0 801e a23f c44a b5bf
000003c0: 80a7 cd3f 7fa5 e8bc 674c ed3e d603 d73f
000003d0: 9390 1bbf e1b3 39bf 0bfd 8abf c030 523f
000003e0: 7983 c33f 8038 24be e483 053f b538 4cbf
000003f0: b8b3 ac3e d764 bbbe ce40 8ebf 7cfa d53f

conv.fc.layer1.weight f4 [256, 272]
-0.9012286 -0.9519818 0.5265185 -0.039245818 0.41104585 0.5218729 -0.5933036 -0.08164507
0.99362594 1.2701801 -0.1809313 -0.020119037 -0.6025113 1.3904417 -1.2211185 1.2955643
0.3885699 -1.1678286 -0.7313171 -0.20955154 0.6004052 -0.82070994 0.6629352 0.2698516
-0.85405713 0.4011418 -0.47228378 -0.9920361 -0.4337858 0.8157509 -1.0342065 -0.52098364
0.054025058 0.21785866 0.8264551 -1.1937026 1.0639307 1.2776077 -0.75584394 0.9173402
-1.8506658 1.6075279 -0.54476947 -0.12459643 -1.0499662 0.35915288 0.44138226 -0.5013899
0.35418996 0.29187348 1.518836 -0.33399573 -0.26531067 -0.6005168 -1.7187378 -1.2789098
-0.3297269 0.9896662 0.5941987 -0.73321986 -0.73551697 2.200506 -0.7735544 -0.38997912
-0.50250965 -0.33398965 -0.10346818 0.09528939 1.1983116 0.1644963 -1.3032663 0.40306714
0.5761233 -0.12842076 -0.21448569 1.1006119 0.40672022 -1.1757876 0.22581054 0.14923652
0.50073797 -0.36754978 -1.9766055 -0.5643703 -0.2122725 -0.5129898 1.1533412 0.7772872
1.1254798 2.318309 -0.16019675 0.43436268 -0.817201 -0.95098567 1.9285883 0.69169736
-0.8011611 2.0382218 -0.2625697 0.47537947 -0.21905816 -0.34977472 -0.71462584 1.2537663
0.59716284 -0.67620236 0.0792732 -0.14780575 0.66383547 0.8698253 1.545298 1.458542
0.88078 0.06923363 -0.13373584 0.78666574 0.6636567 1.1514351 0.23567197 0.5632662
-0.028444 -0.65528375 0.48448303 0.5880173 0.75434256 0.2664888 0.2731353 -0.1518717
-0.084277585 -0.21501665 -1.8528821 0.8014689 -1.4216825 0.565609 0.5010009 0.046020918
0.1377554 -0.05975341 0.6174752 -1.6022546 -0.62323797 -0.58480173 -0.6903815 1.0108204
-0.04887538 0.043553 -0.0139595745 0.5022934 -1.8686628 0.47877347 0.22670758 -0.32591745
-0.39666268 1.5033522 1.0033388 0.31307295 0.8638872 1.3127913 0.23477063 1.4965465
-0.9007939 -1.7140187 1.1884878 -1.164961 -0.35434744 -1.6183604 1.9279866 0.38901478
0.07391533 -1.2486334 -0.1820059 -1.0032271 0.009340571 -0.44490245 0.4053248 0.22703233
-1.535834 -1.2886043 -1.3011066 -0.13890865 0.8094524 -0.38126415 0.34668526 1.4573399
-0.7091688 -0.61194444 -0.052904192 0.795215 -0.041846495 -0.33055115 -1.4888195 -0.077628195
-1.547181 -1.0078434 1.2667603 -0.24073313 1.986267 1.5914726 -0.40855718 -0.99299973
-0.1941502 0.63359314 -0.42933303 -1.1501614 -1.0511177 1.1221867 -0.105779566 2.333407
2.1899295 -2.9604688 0.32203758 -0.034305856 -0.63032985 1.7827035 -1.5312232 0.44586974
0.32178053 0.7373606 0.027957888 -0.0927406 0.27857202 -1.90635 1.1503788 -0.021722343
0.044215247 -1.0401841 0.9535706 -0.45266202 0.72655827 1.3222781 -2.3919442 0.21864523
-1.7975043 -0.34946722 1.0570409 0.1777387 -2.0814173 -0.51381624 -0.11406246 0.12905282
1.7278585 0.4170215 -0.66867226 0.93570703 -2.8091345 -0.0962717 -0.19402885 -1.5340897
-0.2500572 -0.08672642 1.3567199 -2.9989194e-05 0.14397521 -0.22816323 0.6404268 0.49030387
00000000: ebb6 66bf 14b5 73bf ebc9 063f 39c0 20bd
00000010: 9a74 d23e 7699 053f bfe2 17bf 8835 a7bd
00000020: 455e 7e3f 4395 a23f 0e46 39be aed0 a4bc
00000030: 2e3e 1abf fef9 b13f 9c4d 9cbf 0dd5 a53f
00000040: a2f2 c63e 687b 95bf 9937 3bbf ae94 56be
00000050: 28b4 193f 0c1a 52bf 1fb6 293f fd29 8a3e
00000060: 7da3 5abf 7562 cd3e 2ecf f1be 14f6 7dbf
00000070: 2c19 debe 0dd5 503f e160 84bf 2f5f 05bf
00000080: 6149 5d3d 5716 5f3e 9092 533f 3fcb 98bf
00000090: e22e 883f a688 a33f fd7e 41bf cfd6 6a3f
000000a0: 9ee2 ecbf 79c3 cd3f 0376 0bbf 6a2c ffbd
000000b0: 4b65 86bf e3e2 b73e dbfc e13e 175b 00bf
000000c0: 6358 b53e 7170 953e 3869 c23f 7d01 abbe
000000d0: cdd6 87be 78bb 19bf 9aff dbbf 51b3 a3bf
000000e0: f7d1 a8be c45a 7d3f 681d 183f 4cb4 3bbf
000000f0: d74a 3cbf 17d5 0c40 a907 46bf 58ab c7be
00000100: 79a4 00bf b100 abbe 20e7 d3bd 1527 c33d
00000110: 4662 993f b871 283e 6ed1 a6bf d15e ce3e
00000120: d17c 133f bb80 03be 23a2 5bbe dae0 8c3f
00000130: a23d d03e 3580 96bf e13a 673e 75d1 183e
00000140: 5d30 003f 7c2f bcbe 6901 fdbf 927a 10bf
00000150: f65d 59be 4d53 03bf afa0 933f 4bfc 463f
00000160: b90f 903f 2d5f 1440 9e0a 24be c964 de3e
00000170: 1634 51bf cc73 73bf fbdb f63f 1413 313f
00000180: e518 4dbf 3a72 0240 896f 86be f064 f33e
00000190: c850 60be ac15 b3be b8f1 36bf 6a7b a03f
000001a0: aadf 183f 991b 2dbf fd59 a23d 645a 17be
000001b0: 1ff1 293f dfac 5e3f 53cc c53f 81b1 ba3f
000001c0: cc7a 613f 5dca 8d3d 0cf2 08be ed62 493f
000001d0: 68e5 293f 3a62 933f fe53 713e 3732 103f
000001e0: 6403 e9bc adc0 27bf 290e f83e 4d88 163f
000001f0: 981c 413f 3871 883e 64d8 8b3e 4184 1bbe
00000200: ba99 acbd 532d 5cbe 3e2b edbf 112d 4d3f
00000210: b1f9 b5bf c0cb 103f 9841 003f 6e80 3c3d
00000220: c00f 0d3e febf 74bd db12 1e3f ae16 cdbf
00000230: 868c 1fbf 91b5 15bf d8bc 30bf 9062 813f
00000240: 8d31 48bd a164 323d b3b6 64bc 4d96 003f
00000250: 5830 efbf cc21 f53e 0826 683e a7de a6be
00000260: 5f17 cbbe d86d c03f 686d 803f 194b a03e
00000270: b627 5d3f 8c09 a83f b667 703e d68e bf3f
00000280: 6e9a 66bf f764 dbbf 5e20 983f 711d 95bf
00000290: 076d b5be 6f26 cfbf 44c8 f63f f22c c73e
000002a0: ec60 973d 38d3 9fbf c15f 3abe bf69 80bf
000002b0: 3209 193c 41ca e3be bb86 cf3e 2a7b 683e
000002c0: 3596 c4bf fcf0 a4bf a98a a6bf 123e 0ebe
000002d0: 4638 4f3f 0e35 c3be bb80 b13e 1d8a ba3f
000002e0: 168c 35bf 64a8 1cbf 11b2 58bd 3693 4b3f
000002f0: 3b67 2bbd 003e a9be a391 bebf 88fb 9ebd
00000300: 070a c6bf 0301 81bf 3425 a23f bf82 76be
00000310: ff3d fe3f 60b5 cb3f 682e d1be 3b35 7ebf
00000320: 4fcf 46be 2933 223f 8ad1 dbbe 7d38 93bf
00000330: 068b 86bf d0a3 8f3f f5a2 d8bd 8a56 1540
00000340: ce27 0c40 5278 3dc0 1ce2 a43e 4c84 0cbd
00000350: 4c5d 21bf a12f e43f 1fff c3bf 0a49 e43e
00000360: 6bc0 a43e aac3 3c3f f107 e53c c9ee bdbd
00000370: fea0 8e3e 4703 f4bf 9d3f 933f 0ef3 b1bc
00000380: 0c1b 353d c124 85bf 341d 743f 51c3 e7be
00000390: b9ff 393f 6940 a93f 9d15 19c0 89e4 5f3e
000003a0: 9f14 e6bf 5eed b2be 1e4d 873f 2201 363e
000003b0: f135 05c0 7689 03bf 9499 e9bd 6c26 043e
000003c0: 782a dd3f d883 d53e 1b2e 2bbf 7f8a 6f3f
000003d0: dcc8 33c0 192a c5bd 80af 46be 0d5d c4bf
000003e0: 7f07 80be 9f9d b1bd ffa8 ad3f 4e91 fbb7
000003f0: 3d6e 133e 9fa3 69be 03f3 233f 1c09 fb3e

conv.tp.output_mask f4 [160]
0.0 0.0 0.0 0.0 0.0 0.0 0.0 0.0
0.0 0.0 0.0 0.0 0.0 0.0 0.0 0.0
0.0 0.0 0.0 0.0 0.0 0.0 0.0 0.0
0.0 0.0 0.0 0.0 0.0 0.0 0.0 0.0
1.0 1.0 1.0 1.0 1.0 1.0 1.0 1.0
1.0 1.0 1.0 1.0 1.0 1.0 1.0 1.0
1.0 1.0 1.0 1.0 1.0 1.0 1.0 1.0
1.0 1.0 1.0 1.0 1.0 1.0 1.0 1.0
1.0 1.0 1.0 1.0 1.0 1.0 1.0 1.0
1.0 1.0 1.0 1.0 1.0 1.0 1.0 1.0
1.0 1.0 1.0 1.0 1.0 1.0 1.0 1.0
1.0 1.0 1.0 1.0 1.0 1.0 1.0 1.0
1.0 1.0 1.0 1.0 1.0 1.0 1.0 1.0
1.0 1.0 1.0 1.0 1.0 1.0 1.0 1.0
1.0 1.0 1.0 1.0 1.0 1.0 1.0 1.0
1.0 1.0 1.0 1.0 1.0 1.0 1.0 1.0
1.0 1.0 1.0 1.0 1.0 1.0 1.0 1.0
1.0 1.0 1.0 1.0 1.0 1.0 1.0 1.0
1.0 1.0 1.0 1.0 1.0 1.0 1.0 1.0
1.0 1.0 1.0 1.0 1.0 1.0 1.0 1.0
00000000: 0000 0000 0000 0000 0000 0000 0000 0000
00000010: 0000 0000 0000 0000 0000 0000 0000 0000
00000020: 0000 0000 0000 0000 0000 0000 0000 0000
00000030: 0000 0000 0000 0000 0000 0000 0000 0000
00000040: 0000 0000 0000 0000 0000 0000 0000 0000
00000050: 0000 0000 0000 0000 0000 0000 0000 0000
00000060: 0000 0000 0000 0000 0000 0000 0000 0000
00000070: 0000 0000 0000 0000 0000 0000 0000 0000
00000080: 0000 803f 0000 803f 0000 803f 0000 803f
00000090: 0000 803f 0000 803f 0000 803f 0000 803f
000000a0: 0000 803f 0000 803f 0000 803f 0000 803f
000000b0: 0000 803f 0000 803f 0000 803f 0000 803f
000000c0: 0000 803f 0000 803f 0000 803f 0000 803f
000000d0: 0000 803f 0000 803f 0000 803f 0000 803f
000000e0: 0000 803f 0000 803f 0000 803f 0000 803f
000000f0: 0000 803f 0000 803f 0000 803f 0000 803f
00000100: 0000 803f 0000 803f 0000 803f 0000 803f
00000110: 0000 803f 0000 803f 0000 803f 0000 803f
00000120: 0000 803f 0000 803f 0000 803f 0000 803f
00000130: 0000 803f 0000 803f 0000 803f 0000 803f
00000140: 0000 803f 0000 803f 0000 803f 0000 803f
00000150: 0000 803f 0000 803f 0000 803f 0000 803f
00000160: 0000 803f 0000 803f 0000 803f 0000 803f
00000170: 0000 803f 0000 803f 0000 803f 0000 803f
00000180: 0000 803f 0000 803f 0000 803f 0000 803f
00000190: 0000 803f 0000 803f 0000 803f 0000 803f
000001a0: 0000 803f 0000 803f 0000 803f 0000 803f
000001b0: 0000 803f 0000 803f 0000 803f 0000 803f
000001c0: 0000 803f 0000 803f 0000 803f 0000 803f
000001d0: 0000 803f 0000 803f 0000 803f 0000 803f
000001e0: 0000 803f 0000 803f 0000 803f 0000 803f
000001f0: 0000 803f 0000 803f 0000 803f 0000 803f
00000200: 0000 803f 0000 803f 0000 803f 0000 803f
00000210: 0000 803f 0000 803f 0000 803f 0000 803f
00000220: 0000 803f 0000 803f 0000 803f 0000 803f
00000230: 0000 803f 0000 803f 0000 803f 0000 803f
00000240: 0000 803f 0000 803f 0000 803f 0000 803f
00000250: 0000 803f 0000 803f 0000 803f 0000 803f
00000260: 0000 803f 0000 803f 0000 803f 0000 803f
00000270: 0000 803f 0000 803f 0000 803f 0000 803f

final.fc.layer0.weight f4 [3, 256]
-2.9621723 -0.24984512 -0.04020345 0.5855677 0.8178257 1.922207 0.10814647 -1.6233052
0.26162258 1.2884841 1.2266424 -0.7312843 -0.505812 -0.042337902 -0.5769672 -0.5230888
0.21195659 1.094051 -0.88880426 -0.032807563 2.1018257 -0.3621038 0.57336223 1.8087654
1.5258602 0.5959175 0.63133645 0.88648725 -1.1782625 -1.310013 -0.32775342 -0.8413968
1.7792356 -0.014700899 -0.35359627 -0.37360558 1.3827624 -1.2980868 -1.3410593 -0.36437467
-1.0638996 -0.21182176 1.4844834 -0.10717369 -1.0934893 -0.19358878 -0.36852065 -0.8603944
0.8352903 0.8494986 2.0250387 -0.1610478 -1.8891298 2.6616354 0.29895908 -1.5413663
2.2249591 -0.18207361 0.44556114 1.2672786 -0.30176744 -4.0443926 0.6337268 1.022945
-0.8458335 -0.10200307 0.62622315 -3.00315 -0.0034931053 1.4407618 0.28521654 0.55267406
-0.058701333 0.8788354 0.03359659 0.71795124 -1.5966871 1.0799862 -0.17125717 0.93288064
1.0051413 0.4547071 -0.52267796 2.0775776 -1.0189956 -1.5276954 0.8901882 0.3527689
-0.37865603 0.36593032 0.5004703 -0.36147854 1.1496572 -3.1001177 -1.2373053 -0.54056036
-1.6036506 -0.7934054 -1.8390023 0.079834975 1.2205619 0.44030598 -1.6794302 0.7250071
-1.898963 -1.0141317 -0.4203457 2.1227915 -0.6239377 -0.11963022 -0.9310812 -1.2257335
-0.05457864 0.424286 1.9118948 -0.10146743 -0.3861015 -1.199048 -0.5235623 -0.782526
1.1223747 -1.4208771 0.16055432 -0.5903707 -0.79267764 -0.09034108 -0.26823333 1.1631117
-1.8336837 -0.4709542 -0.6582814 -0.6226078 -0.6550149 -0.5055885 -2.1325145 -0.65710956
-0.23010696 -0.22362973 -0.60628664 -0.07747543 1.0841883 0.22786134 -0.008221558 -0.27102655
-2.4520614 -3.0241396 0.74074113 0.5554319 -0.017483363 -0.3419955 0.18119311 -0.106085606
-0.17077969 1.6277593 -0.0035815807 0.80883175 0.8983193 -2.26972 0.41434467 -0.27486038
-0.21545513 -2.202009 -0.55867505 -0.2746639 0.1616042 -3.5703309 -0.89042753 -0.77112794
-1.2116133 -1.1517158 0.9141507 -0.05872129 0.99799514 0.34323186 -0.7753087 -1.743422
0.38912162 0.7653023 -0.26044452 0.19102909 -0.47982588 -0.28031248 -0.03115268 -0.717499
-0.79617655 -0.19372994 1.2241029 -2.1486607 -1.4448652 -2.9971397 0.6582964 0.39954254
-0.38740346 -1.0310081 -0.13560772 -0.37922648 -0.8563062 -1.0802662 -1.3483237 1.0481174
-0.38443112 2.2890694 -0.55318904 0.78228456 -0.073534735 -0.40408492 -2.0254643 -0.87288797
-1.4535483 -0.5090988 0.6242925 -0.66476536 0.76529294 -0.2198039 1.3360851 0.6675437
0.40346676 0.16196455 -1.3212405 0.88761705 1.507971 0.11354615 1.5751882 0.6558179
-1.7863766 -0.36318377 0.83726496 0.67893827 -2.08466 1.2655568 0.025077043 -1.195861
1.6568646 1.5968517 -0.4045471 -0.27205223 0.66177374 -0.9001611 0.9083606 -0.6444476
1.5051442 1.1673591 0.24128547 0.75105387 0.13918233 -0.5347128 -0.6083669 1.9714146
-0.2402427 1.5985143 -0.16170079 0.96490943 1.9166803 0.6289896 0.51213235 -1.9786397
00000000: 3b94 3dc0 66d7 7fbe 5fac 24bd c4e7 153f
00000010: 065d 513f e10a f63f e57b dd3d 77c8 cfbf
00000020: 65f3 853e 0ced a43f 9e02 9d3f 7335 3bbf
00000030: e57c 01bf 826a 2dbd 1fb4 13bf 26e9 05bf
00000040: 260b 593e dd09 8c3f ad88 63bf 3961 06bd
00000050: 5084 0640 ab65 b9be dec7 123f a085 e73f
00000060: 634f c33f 0d8e 183f 449f 213f d4f0 623f
00000070: 4ed1 96bf 82ae a7bf 4ccf a7be c865 57bf
00000080: febd e33f 0adc 70bc 920a b5be 3b49 bfbe
00000090: 5cfe b03f b527 a6bf d5a7 abbf 518f babe
000000a0: dd2d 88bf cee7 58be 8d03 be3f e17d dbbd
000000b0: 75f7 8bbf 233c 46be bdae bcbe cf42 5cbf
000000c0: 96d5 553f be78 593f 3c9a 0140 b7e9 24be
000000d0: 01cf f1bf 3c58 2a40 2a11 993e 7e4b c5bf
000000e0: bb65 0e40 8171 3abe 9720 e43e 2f36 a23f
000000f0: 4381 9abe aa6b 81c0 eb3b 223f ddef 823f
00000100: 8b88 58bf fce6 d0bd 2950 203f 9c33 40c0
00000110: 95ec 64bb e26a b83f e707 923e 0c7c 0d3f
00000120: cf70 70bd 5bfb 603f 949c 093d a7cb 373f
00000130: 3e60 ccbf fd3c 8a3f 0a5e 2fbe 44d1 6e3f
00000140: 78a8 803f 5ecf e83e 39ce 05bf 08f7 0440
00000150: 736e 82bf 868b c3bf 60e3 633f 209e b43e
00000160: 34df c1be 385b bb3e d21e 003f b713 b9be
00000170: f827 933f 5468 46c0 0560 9ebf 2a62 0abf
00000180: 6c44 cdbf 9e1c 4bbf 6d64 ebbf 8580 a33d
00000190: 5f3b 9c3f c96f e13e 92f7 d6bf 119a 393f
000001a0: 3811 f3bf 11cf 81bf 8d37 d7be d1db 0740
000001b0: 62ba 1fbf b000 f5bd 565b 6ebf d6e4 9cbf
000001c0: da8d 5fbd 043c d93e f8b8 f43f 28ce cfbd
000001d0: 19af c5be 687a 99bf 2e08 06bf a053 48bf
000001e0: f9a9 8f3f 4ddf b5bf 5a68 243e 8922 17bf
000001f0: ecec 4abf bf04 b9bd e155 89be d8e0 943f
00000200: 26b6 eabf e920 f1be 2185 28bf 3a63 1fbf
00000210: 0eaf 27bf 3f6e 01bf 1e7b 08c0 5538 28bf
00000220: 29a1 6bbe 31ff 64be 9a35 1bbf 70ab 9ebd
00000230: afc6 8a3f 7c54 693e b7b3 06bc fec3 8abe
00000240: 93ee 1cc0 818b 41c0 36a1 3d3f c930 0e3f
00000250: 4539 8fbc 091a afbe b08a 393e 6943 d9bd
00000260: dfe0 2ebe 6b5a d03f f4b8 6abb 990f 4f3f
00000270: 41f8 653f 1843 11c0 fc24 d43e 80ba 8cbe
00000280: 45a0 5cbe b7ed 0cc0 5405 0fbf bfa0 8cbe
00000290: 927b 253e 4d80 64c0 0ff3 63bf a468 45bf
000002a0: 2516 9bbf 6c6b 93bf c805 6a3f bc85 70bd
000002b0: 9c7c 7f3f 16bc af3e a27a 46bf 7428 dfbf
000002c0: f33a c73e daea 433f fc58 85be 219d 433e
000002d0: bdab f5be 1e85 8fbe e833 ffbc 04ae 37bf
000002e0: 3ad2 4bbf 2461 46be 67af 9c3f a883 09c0
000002f0: 58f1 b8bf 23d1 3fc0 1d86 283f d790 cc3e
00000300: bf59 c6be 13f8 83bf c0dc 0abe f929 c2be
00000310: e236 5bbf 2a46 8abf df95 acbf b628 863f
00000320: 28d4 c4be 1d80 1240 cc9d 0dbf cd43 483f
00000330: 6199 96bd 38e4 cebe 35a1 01c0 9675 5fbf
00000340: df0d babf 4d54 02bf a2d1 1f3f 102e 2abf
00000350: 3dea 433f 4614 61be d604 ab3f 25e4 2a3f
00000360: 3293 ce3e 09da 253e 691e a9bf df3a 633f
00000370: 3205 c13f e28a e83d c49f c93f afe3 273f
00000380: fda7 e4bf 39f3 b9be ff56 563f e6ce 2d3f
00000390: 126b 05c0 c4fd a13f 5f6e cd3c f911 99bf
000003a0: 2414 d43f a365 cc3f cc20 cfbe 6e4a 8bbe
000003b0: 016a 293f f570 66bf 528a 683f 85fa 24bf
000003c0: 91a8 c03f 066c 953f 8a13 773e 1145 403f
000003d0: d085 0e3e f0e2 08bf efbd 1bbf 5057 fc3f
000003e0: 2f02 76be 1e9c cc3f e494 25be 4e04 773f
000003f0: c855 f53f 7605 213f 1b1b 033f 1144 fdbf

final.fc.layer1.weight f4 [256, 48]
1.3964715 0.14949277 -0.25431216 -0.975606 -1.6975096 0.3515303 -2.2097042 0.026664345
0.35985607 0.4303124 -1.186422 2.6841714 -0.85623 -2.358489 -0.67217976 -1.7183478
-0.49368662 -0.69054204 -1.0400087 -0.8119067 1.3546128 1.1848891 -0.71866304 -0.8966322
0.30373234 0.33260742 -0.16788405 -1.6560934 -2.2981157 -1.1265862 -0.116307415 1.0547404
-1.0938874 -0.9935784 -0.79429615 0.106477454 0.7683596 -1.6104734 0.8788993 1.5107889
-1.7271792 -0.23910287 0.32522812 0.71848655 -2.90829 0.3352864 -0.9771215 0.26977715
0.98369235 -2.4718363 -0.33499634 0.48959625 0.6213448 -0.83427614 0.24507852 0.5909633
0.33604923 1.2530123 -1.0966195 -0.20789598 -1.8614961 -0.22995849 1.0898793 0.6546546
0.014960815 -0.729862 1.5840085 0.17440301 0.53693813 0.3719433 -0.3315579 -0.58411914
0.024403851 0.9199965 0.7914659 1.0513592 0.29814434 0.7456604 -0.57708454 -0.91261834
1.00971 -0.98602694 -0.9649445 -0.00072075916 -0.34749413 1.1549956 -0.43592125 -0.77192295
0.008727128 -0.44225538 1.1463816 0.70472014 -0.5121332 0.41550753 -1.2405201 -1.0716262
0.14399783 0.3492503 0.89004546 -2.2875166 0.6365674 -1.2547915 -1.5975935 0.5995679
0.7289511 0.41798964 0.63341296 0.3827848 -1.9729428 0.31089506 0.46926758 1.7838464
-1.9519963 0.027174812 0.82166195 -0.050188478 -1.0130415 -1.3368762 -0.83842516 -0.7217162
-0.38131833 -0.33159536 -0.5592582 -0.17465998 -0.79012644 -0.5382039 1.9486544 -0.39113227
0.07050744 -0.0035620625 0.6880938 0.64931744 0.82778275 0.0016253385 0.54215145 0.98763525
-0.6339142 -0.53745526 0.34619197 1.2390468 -0.34677166 -0.81369233 0.83254427 0.44945106
2.6855338 0.5052009 -1.3201104 -0.26703414 0.7280871 -0.8568198 -0.54214525 -0.66966677
-1.9552883 -0.34849182 0.5298067 -0.4105596 0.2912511 0.36491814 -0.8781167 -0.87155163
0.5400691 -0.64572936 -0.37109742 -0.014112014 0.43045422 0.45742926 1.2754747 0.68678296
-0.09145166 0.24416958 0.9537336 -0.60398173 -1.095081 -0.68210685 -0.45219263 0.15846805
-0.47195992 -2.2745554 0.19524282 0.674964 -0.3721983 0.2675683 0.5694583 1.1461906
-0.3408824 -0.3906387 0.7820678 0.26303515 1.3656231 1.6155758 0.03618727 1.6938181
-0.74611264 -0.24739312 -0.10629175 2.1517797 -0.036186647 0.9631362 -0.20665103 0.061978236
-0.31323993 -0.29659125 0.24012882 -0.7342939 -0.0002703693 1.5064911 1.4939098 -1.0820842
0.54870725 2.2278953 0.081995256 -0.337011 -0.58787227 -0.33331037 -0.021282187 -0.82900095
-0.32532656 0.733271 0.015206755 1.3192449 -0.8084333 0.216275 0.3554881 -0.90368474
1.1855367 -0.1903516 0.67285365 2.806739 0.5517799 0.77105004 -0.485206 1.170538
-1.0162265 1.727841 1.0977496 1.0903928 -0.78609955 -0.6738655 -0.08555689 2.0568125
0.95641935 0.043029137 0.19347498 0.052025322 -0.8059597 -1.8477858 0.25858608 -1.1432791
0.37986284 -1.9603647 1.8316746 1.6229492 0.5987119 0.6430809 -0.7490243 1.286156
00000000: 94bf b23f a214 193e 3435 82be 51c1 79bf
00000010: ff47 d9bf c8fb b33e cb6b 0dc0 2f6f da3c
00000020: 0e3f b83e e851 dc3e addc 97bf 77c9 2b40
00000030: e431 5bbf 7cf1 16c0 f913 2cbf d2f2 dbbf
00000040: 7ec4 fcbe 5dc7 30bf 011f 85bf 1ed9 4fbf
00000050: f463 ad3f 72aa 973f 4dfa 37bf b089 65bf
00000060: ce82 9b3e 854b aa3e cce9 2bbe defa d3bf
00000070: 5414 13c0 fa33 90bf 9532 eebd bc01 873f
00000080: 8104 8cbf 275b 7ebf fe56 4bbf da10 da3d
00000090: 37b3 443f fe23 cebf 8bff 603f 8861 c13f
000000a0: 3514 ddbf 62d7 74be 4d84 a63e bcee 373f
000000b0: 6c21 3ac0 a9aa ab3e a224 7abf 3b20 8a3e
000000c0: 43d3 7b3f 9132 1ec0 a484 abbe 5cac fa3e
000000d0: 7410 1f3f 1f93 55bf ddf5 7a3e 5f49 173f
000000e0: a50e ac3e b562 a03f 075e 8cbf afe2 54be
000000f0: 8145 eebf 3d7a 6bbe 2a81 8b3f 7297 273f
00000100: 351e 753c 3cd8 3abf cac0 ca3f b496 323e
00000110: c774 093f 5a6f be3e f5c1 a9be d588 15bf
00000120: 96ea c73c e484 6b3f 829d 4a3f f092 863f
00000130: 60a6 983e 9ae3 3e3f d0bb 13bf 5ba1 69bf
00000140: 2d3e 813f 436c 7cbf 9a06 77bf 54f1 3cba
00000150: c0ea b1be e5d6 933f 1231 dfbe be9c 45bf
00000160: 3afc 0e3c 4c6f e2be a2bc 923f 8a68 343f
00000170: 291b 03bf 67bd d43e 5dc9 9ebf 0c2b 89bf
00000180: 2b74 133e efd0 b23e 05da 633f ac66 12c0
00000190: 15f6 223f 029d a0bf f27d ccbf 487d 193f
000001a0: 8a9c 3a3f bd02 d63e 5a27 223f 5ffc c33e
000001b0: 6489 fcbf a32d 9f3e d743 f03e 1455 e43f
000001c0: 04db f9bf b69d de3c 7058 523f 6f92 4dbd
000001d0: 58ab 81bf c21e abbf 08a3 56bf 65c2 38bf
000001e0: 283c c3be dec6 a9be 8c2b 0fbf 11da 32be
000001f0: ba45 4abf bbc7 09bf 826d f93f 7d42 c8be
00000200: 3466 903d 7e71 69bb ea26 303f ab39 263f
00000210: 92e9 533f 4f09 d53a 70ca 0a3f aad5 7c3f
00000220: 3348 22bf ab96 09bf 1340 b13e 1699 9e3f
00000230: 0e8c b1be 244e 50bf 9f21 553f 731e e63e
00000240: c9df 2b40 d954 013f 61f9 a8bf b3b8 88be
00000250: eb63 3a3f 8b58 5bbf 08ca 0abf 486f 2bbf
00000260: e346 fabf 856d b2be 69a1 073f de34 d2be
00000270: dd1e 953e 8dd6 ba3e 42cc 60bf 021e 5fbf
00000280: f841 0a3f 854e 25bf 7b00 bebe 1436 67bc
00000290: 7f64 dc3e 2b34 ea3e c142 a33f 02d1 2f3f
000002a0: 024b bbbd 9707 7a3e e327 743f 8c9e 1abf
000002b0: 9d2b 8cbf 8e9e 2ebf cb85 e7be 7345 223e
000002c0: bba4 f1be 5192 11c0 bced 473e 71ca 2c3f
000002d0: c790 bebe b6fe 883e 05c8 113f 60b6 923f
000002e0: 2388 aebe cc01 c8be 9835 483f 8bac 863e
000002f0: bdcc ae3f 30cb ce3f 1a39 143d 08cf d83f
00000300: 3d01 3fbf 9f54 7dbe 7daf d9bd c2b6 0940
00000310: 7338 14bd 1890 763f 549c 53be e4dc 7d3d
00000320: fc60 a0be cfda 97be 54e4 753e affa 3bbf
00000330: 5ac0 8db9 b3d4 c03f 7038 bf3f bc81 8abf
00000340: 1478 0c3f d695 0e40 21ed a73d b58c acbe
00000350: cc7e 16bf a8a7 aabe fb57 aebc 6839 54bf
00000360: 3491 a6be a6b7 3b3f c125 793c 04dd a83f
00000370: 7cf5 4ebf 3277 5d3e 8902 b63e e257 67bf
00000380: abbf 973f 88eb 42be 2340 2c3f 9da1 3340
00000390: 7341 0d3f 8963 453f ec6c f8be 30d4 953f
000003a0: b613 82bf e529 dd3f 0f83 8c3f fe91 8b3f
000003b0: d23d 49bf 7382 2cbf 7338 afbd d1a2 0340
000003c0: e6d7 743f 523f 303d 4e1e 463e 8118 553d
000003d0: 6053 4ebf 3f84 ecbf 6565 843e f856 92bf
000003e0: 627d c23e 3bed fabf 5074 ea3f cdbc cf3f
000003f0: 2f45 193f f3a0 243f 0ec0 3fbf c3a0 a43f
